…
no_visdom: False
non_target_j: False
num_workers: 2
optim: adam
phase: train_val
port_id: 9000
pre_ch_num: 256
primary_cap_num: 32
random_seed: 3529
route_num: 3
s35: True
save_epoch: 25
save_folder: result/base_102_v1_3_N_6
schedule: [200, 300, 400]
setting: top1
show_freq: 100
show_test_after_epoch: 100
squash_manner: paper
use_KL: False
use_cuda: True
use_instanceBN: False
use_multiple: False
weight_decay: 0.0005
------------------ End --------------------
DataParallel (
  (module): CapNet(
    (layer1): Sequential(
      (0): Conv2d (3, 32, kernel_size=(3, 3), stride=(1, 1), padding=(1, 1))
      (1): BatchNorm2d(32, eps=1e-05, momentum=0.1, affine=True)
      (2): ReLU(inplace)
    )
    (cap1_conv): CapConv(
      (conv_adjust_blob_shape): Conv2d (32, 64, kernel_size=(3, 3), stride=(1, 1), padding=(1, 1))
      (sub_layer): Sequential(
        (0): Conv2d (32, 64, kernel_size=(1, 1), stride=(1, 1), groups=32)
      )
      (last_relu): ReLU()
      (last_bn): BatchNorm2d(64, eps=1e-05, momentum=0.1, affine=True)
      (last_squash): conv_squash(num_shared=32)
    )
    (cap1_conv_sub): CapConv(
      (sub_layer): Sequential(
        (0): Conv2d (64, 64, kernel_size=(1, 1), stride=(1, 1), groups=32)
        (1): BatchNorm2d(64, eps=1e-05, momentum=0.1, affine=True)
        (2): ReLU(inplace)
        (3): conv_squash(num_shared=32)
        (4): Conv2d (64, 64, kernel_size=(1, 1), stride=(1, 1), groups=32)
        (5): BatchNorm2d(64, eps=1e-05, momentum=0.1, affine=True)
        (6): ReLU(inplace)
        (7): conv_squash(num_shared=32)
        (8): Conv2d (64, 64, kernel_size=(1, 1), stride=(1, 1), groups=32)
        (9): BatchNorm2d(64, eps=1e-05, momentum=0.1, affine=True)
        (10): ReLU(inplace)
        (11): conv_squash(num_shared=32)
        (12): Conv2d (64, 64, kernel_size=(1, 1), stride=(1, 1), groups=32)
        (13): BatchNorm2d(64, eps=1e-05, momentum=0.1, affine=True)
        (14): ReLU(inplace)
        (15): conv_squash(num_shared=32)
        (16): Conv2d (64, 64, kernel_size=(1, 1), stride=(1, 1), groups=32)
        (17): BatchNorm2d(64, eps=1e-05, momentum=0.1, affine=True)
        (18): ReLU(inplace)
        (19): conv_squash(num_shared=32)
        (20): Conv2d (64, 64, kernel_size=(1, 1), stride=(1, 1), groups=32)
      )
      (last_relu): ReLU()
      (last_bn): BatchNorm2d(64, eps=1e-05, momentum=0.1, affine=True)
      (last_squash): conv_squash(num_shared=32)
    )
    (cap2_conv): CapConv(
      (conv_adjust_blob_shape): Conv2d (64, 128, kernel_size=(3, 3), stride=(2, 2), padding=(1, 1))
      (sub_layer): Sequential(
        (0): Conv2d (64, 128, kernel_size=(3, 3), stride=(2, 2), padding=(1, 1), groups=32)
      )
      (last_relu): ReLU()
      (last_bn): BatchNorm2d(128, eps=1e-05, momentum=0.1, affine=True)
      (last_squash): conv_squash(num_shared=32)
    )
    (cap2_conv_sub): CapConv(
      (sub_layer): Sequential(
        (0): Conv2d (128, 128, kernel_size=(1, 1), stride=(1, 1), groups=32)
        (1): BatchNorm2d(128, eps=1e-05, momentum=0.1, affine=True)
        (2): ReLU(inplace)
        (3): conv_squash(num_shared=32)
        (4): Conv2d (128, 128, kernel_size=(1, 1), stride=(1, 1), groups=32)
        (5): BatchNorm2d(128, eps=1e-05, momentum=0.1, affine=True)
        (6): ReLU(inplace)
        (7): conv_squash(num_shared=32)
        (8): Conv2d (128, 128, kernel_size=(1, 1), stride=(1, 1), groups=32)
        (9): BatchNorm2d(128, eps=1e-05, momentum=0.1, affine=True)
        (10): ReLU(inplace)
        (11): conv_squash(num_shared=32)
        (12): Conv2d (128, 128, kernel_size=(1, 1), stride=(1, 1), groups=32)
        (13): BatchNorm2d(128, eps=1e-05, momentum=0.1, affine=True)
        (14): ReLU(inplace)
        (15): conv_squash(num_shared=32)
        (16): Conv2d (128, 128, kernel_size=(1, 1), stride=(1, 1), groups=32)
        (17): BatchNorm2d(128, eps=1e-05, momentum=0.1, affine=True)
        (18): ReLU(inplace)
        (19): conv_squash(num_shared=32)
        (20): Conv2d (128, 128, kernel_size=(1, 1), stride=(1, 1), groups=32)
      )
      (last_relu): ReLU()
      (last_bn): BatchNorm2d(128, eps=1e-05, momentum=0.1, affine=True)
      (last_squash): conv_squash(num_shared=32)
    )
    (cap3_conv): CapConv(
      (conv_adjust_blob_shape): Conv2d (128, 256, kernel_size=(3, 3), stride=(2, 2), padding=(1, 1))
      (sub_layer): Sequential(
        (0): Conv2d (128, 256, kernel_size=(3, 3), stride=(2, 2), padding=(1, 1), groups=32)
      )
      (last_relu): ReLU()
      (last_bn): BatchNorm2d(256, eps=1e-05, momentum=0.1, affine=True)
      (last_squash): conv_squash(num_shared=32)
    )
    (cap3_conv_sub): CapConv(
      (sub_layer): Sequential(
        (0): Conv2d (256, 256, kernel_size=(1, 1), stride=(1, 1), groups=32)
        (1): BatchNorm2d(256, eps=1e-05, momentum=0.1, affine=True)
        (2): ReLU(inplace)
        (3): conv_squash(num_shared=32)
        (4): Conv2d (256, 256, kernel_size=(1, 1), stride=(1, 1), groups=32)
        (5): BatchNorm2d(256, eps=1e-05, momentum=0.1, affine=True)
        (6): ReLU(inplace)
        (7): conv_squash(num_shared=32)
        (8): Conv2d (256, 256, kernel_size=(1, 1), stride=(1, 1), groups=32)
        (9): BatchNorm2d(256, eps=1e-05, momentum=0.1, affine=True)
        (10): ReLU(inplace)
        (11): conv_squash(num_shared=32)
        (12): Conv2d (256, 256, kernel_size=(1, 1), stride=(1, 1), groups=32)
        (13): BatchNorm2d(256, eps=1e-05, momentum=0.1, affine=True)
        (14): ReLU(inplace)
        (15): conv_squash(num_shared=32)
        (16): Conv2d (256, 256, kernel_size=(1, 1), stride=(1, 1), groups=32)
        (17): BatchNorm2d(256, eps=1e-05, momentum=0.1, affine=True)
        (18): ReLU(inplace)
        (19): conv_squash(num_shared=32)
        (20): Conv2d (256, 256, kernel_size=(1, 1), stride=(1, 1), groups=32)
      )
      (last_relu): ReLU()
      (last_bn): BatchNorm2d(256, eps=1e-05, momentum=0.1, affine=True)
      (last_squash): conv_squash(num_shared=32)
    )
    (cap4_conv): CapConv(
      (conv_adjust_blob_shape): Conv2d (256, 512, kernel_size=(3, 3), stride=(2, 2), padding=(1, 1))
      (sub_layer): Sequential(
        (0): Conv2d (256, 512, kernel_size=(3, 3), stride=(2, 2), padding=(1, 1), groups=32)
      )
      (last_relu): ReLU()
      (last_bn): BatchNorm2d(512, eps=1e-05, momentum=0.1, affine=True)
      (last_squash): conv_squash(num_shared=32)
    )
    (cap4_conv_sub): CapConv(
      (sub_layer): Sequential(
        (0): Conv2d (512, 512, kernel_size=(1, 1), stride=(1, 1), groups=32)
        (1): BatchNorm2d(512, eps=1e-05, momentum=0.1, affine=True)
        (2): ReLU(inplace)
        (3): conv_squash(num_shared=32)
        (4): Conv2d (512, 512, kernel_size=(1, 1), stride=(1, 1), groups=32)
        (5): BatchNorm2d(512, eps=1e-05, momentum=0.1, affine=True)
        (6): ReLU(inplace)
        (7): conv_squash(num_shared=32)
        (8): Conv2d (512, 512, kernel_size=(1, 1), stride=(1, 1), groups=32)
        (9): BatchNorm2d(512, eps=1e-05, momentum=0.1, affine=True)
        (10): ReLU(inplace)
        (11): conv_squash(num_shared=32)
        (12): Conv2d (512, 512, kernel_size=(1, 1), stride=(1, 1), groups=32)
        (13): BatchNorm2d(512, eps=1e-05, momentum=0.1, affine=True)
        (14): ReLU(inplace)
        (15): conv_squash(num_shared=32)
        (16): Conv2d (512, 512, kernel_size=(1, 1), stride=(1, 1), groups=32)
        (17): BatchNorm2d(512, eps=1e-05, momentum=0.1, affine=True)
        (18): ReLU(inplace)
        (19): conv_squash(num_shared=32)
        (20): Conv2d (512, 512, kernel_size=(1, 1), stride=(1, 1), groups=32)
      )
      (last_relu): ReLU()
      (last_bn): BatchNorm2d(512, eps=1e-05, momentum=0.1, affine=True)
      (last_squash): conv_squash(num_shared=32)
    )
    (final_cls): CapFC(in_cap_num=512, out_cap_num=10, cap_dim=16, fc_manner=default)
  ), weights=((32, 3, 3, 3), (32,), (32,), (32,), (64, 32, 3, 3), (64,), (64, 1, 1, 1), (64,), (64,), (64,), (64, 2, 1, 1), (64,), (64,), (64,), (64, 2, 1, 1), (64,), (64,), (64,), (64, 2, 1, 1), (64,), (64,), (64,), 
…
