…
file_name: result/cap_102_v1/opt_train_val_START_epoch_0_END_600.txt
gamma: 0.1
layerwise: False
less_data_aug: True
loss_form: margin
lr: 0.0001
manner: 1
manual_seed: -1
max_epoch: 600
measure_time: False
momentum: 0.9
more_skip: False
multi_crop_test: False
no_visdom: False
non_target_j: False
num_workers: 2
optim: adam
phase: train_val
port_id: 8000
random_seed: 3483
s35: False
save_epoch: 25
save_folder: result/cap_102_v1
schedule: [200, 300, 400]
show_freq: 100
show_test_after_epoch: 100
use_cuda: True
weight_decay: 0.0005
wider: False
------------------ End --------------------
DataParallel (
  (module): CapNet (
    (module0): Sequential (
      (0): Conv2d(3, 32, kernel_size=(3, 3), stride=(1, 1), padding=(1, 1))
      (1): BatchNorm2d(32, eps=1e-05, momentum=0.1, affine=True)
      (2): ReLU (inplace)
    )
    (module1): CapConv2 (
      (main_conv): CapConv (
        (conv_adjust_blob_shape): Conv2d(32, 64, kernel_size=(3, 3), stride=(1, 1), padding=(1, 1))
        (block): Sequential (
          (0): capConvRoute1 (
            (main_cap): Conv2d(32, 64, kernel_size=(3, 3), stride=(1, 1), padding=(1, 1), groups=32)
            (main_cap_coeff): Conv2d(64, 32, kernel_size=(3, 3), stride=(1, 1), padding=(1, 1), groups=32)
            (res_cap): Conv2d(32, 64, kernel_size=(3, 3), stride=(1, 1), padding=(1, 1))
            (res_squash): conv_squash(num_shared=32)
          )
        )
        (last_bn): BatchNorm2d(64, eps=1e-05, momentum=0.1, affine=True)
        (last_relu): ReLU ()
        (last_squash): conv_squash(num_shared=32)
      )
      (sub_conv): CapConv (
        (block): Sequential (
          (0): capConvRoute1 (
            (main_cap): Conv2d(64, 64, kernel_size=(1, 1), stride=(1, 1), groups=32)
            (main_cap_coeff): Conv2d(64, 32, kernel_size=(3, 3), stride=(1, 1), padding=(1, 1), groups=32)
            (res_cap): Conv2d(64, 64, kernel_size=(1, 1), stride=(1, 1))
            (res_squash): conv_squash(num_shared=32)
          )
          (1): BatchNorm2d(64, eps=1e-05, momentum=0.1, affine=True)
          (2): ReLU (inplace)
          (3): conv_squash(num_shared=32)
          (4): capConvRoute1 (
            (main_cap): Conv2d(64, 64, kernel_size=(1, 1), stride=(1, 1), groups=32)
            (main_cap_coeff): Conv2d(64, 32, kernel_size=(3, 3), stride=(1, 1), padding=(1, 1), groups=32)
            (res_cap): Conv2d(64, 64, kernel_size=(1, 1), stride=(1, 1))
            (res_squash): conv_squash(num_shared=32)
          )
          (5): BatchNorm2d(64, eps=1e-05, momentum=0.1, affine=True)
          (6): ReLU (inplace)
          (7): conv_squash(num_shared=32)
          (8): capConvRoute1 (
            (main_cap): Conv2d(64, 64, kernel_size=(1, 1), stride=(1, 1), groups=32)
            (main_cap_coeff): Conv2d(64, 32, kernel_size=(3, 3), stride=(1, 1), padding=(1, 1), groups=32)
            (res_cap): Conv2d(64, 64, kernel_size=(1, 1), stride=(1, 1))
            (res_squash): conv_squash(num_shared=32)
          )
          (9): BatchNorm2d(64, eps=1e-05, momentum=0.1, affine=True)
          (10): ReLU (inplace)
          (11): conv_squash(num_shared=32)
          (12): capConvRoute1 (
            (main_cap): Conv2d(64, 64, kernel_size=(1, 1), stride=(1, 1), groups=32)
            (main_cap_coeff): Conv2d(64, 32, kernel_size=(3, 3), stride=(1, 1), padding=(1, 1), groups=32)
            (res_cap): Conv2d(64, 64, kernel_size=(1, 1), stride=(1, 1))
            (res_squash): conv_squash(num_shared=32)
          )
        )
        (last_bn): BatchNorm2d(64, eps=1e-05, momentum=0.1, affine=True)
        (last_relu): ReLU ()
        (last_squash): conv_squash(num_shared=32)
      )
    )
    (module2): CapConv2 (
      (main_conv): CapConv (
        (conv_adjust_blob_shape): Conv2d(64, 128, kernel_size=(3, 3), stride=(2, 2), padding=(1, 1))
        (block): Sequential (
          (0): capConvRoute1 (
            (main_cap): Conv2d(64, 128, kernel_size=(3, 3), stride=(2, 2), padding=(1, 1), groups=32)
            (main_cap_coeff): Conv2d(128, 32, kernel_size=(3, 3), stride=(1, 1), padding=(1, 1), groups=32)
            (res_cap): Conv2d(64, 128, kernel_size=(3, 3), stride=(2, 2), padding=(1, 1))
            (res_squash): conv_squash(num_shared=32)
          )
        )
        (last_bn): BatchNorm2d(128, eps=1e-05, momentum=0.1, affine=True)
        (last_relu): ReLU ()
        (last_squash): conv_squash(num_shared=32)
      )
      (sub_conv): CapConv (
        (block): Sequential (
          (0): capConvRoute1 (
            (main_cap): Conv2d(128, 128, kernel_size=(1, 1), stride=(1, 1), groups=32)
            (main_cap_coeff): Conv2d(128, 32, kernel_size=(3, 3), stride=(1, 1), padding=(1, 1), groups=32)
            (res_cap): Conv2d(128, 128, kernel_size=(1, 1), stride=(1, 1))
            (res_squash): conv_squash(num_shared=32)
          )
          (1): BatchNorm2d(128, eps=1e-05, momentum=0.1, affine=True)
          (2): ReLU (inplace)
          (3): conv_squash(num_shared=32)
          (4): capConvRoute1 (
            (main_cap): Conv2d(128, 128, kernel_size=(1, 1), stride=(1, 1), groups=32)
            (main_cap_coeff): Conv2d(128, 32, kernel_size=(3, 3), stride=(1, 1), padding=(1, 1), groups=32)
            (res_cap): Conv2d(128, 128, kernel_size=(1, 1), stride=(1, 1))
            (res_squash): conv_squash(num_shared=32)
          )
          (5): BatchNorm2d(128, eps=1e-05, momentum=0.1, affine=True)
          (6): ReLU (inplace)
          (7): conv_squash(num_shared=32)
          (8): capConvRoute1 (
            (main_cap): Conv2d(128, 128, kernel_size=(1, 1), stride=(1, 1), groups=32)
            (main_cap_coeff): Conv2d(128, 32, kernel_size=(3, 3), stride=(1, 1), padding=(1, 1), groups=32)
            (res_cap): Conv2d(128, 128, kernel_size=(1, 1), stride=(1, 1))
            (res_squash): conv_squash(num_shared=32)
          )
          (9): BatchNorm2d(128, eps=1e-05, momentum=0.1, affine=True)
          (10): ReLU (inplace)
          (11): conv_squash(num_shared=32)
          (12): capConvRoute1 (
            (main_cap): Conv2d(128, 128, kernel_size=(1, 1), stride=(1, 1), groups=32)
            (main_cap_coeff): Conv2d(128, 32, kernel_size=(3, 3), stride=(1, 1), padding=(1, 1), groups=32)
            (res_cap): Conv2d(128, 128, kernel_size=(1, 1), stride=(1, 1))
            (res_squash): conv_squash(num_shared=32)
          )
        )
        (last_bn): BatchNorm2d(128, eps=1e-05, momentum=0.1, affine=True)
        (last_relu): ReLU ()
        (last_squash): conv_squash(num_shared=32)
      )
    )
    (module3): CapConv2 (
      (main_conv): CapConv (
        (conv_adjust_blob_shape): Conv2d(128, 256, kernel_size=(3, 3), stride=(2, 2), padding=(1, 1))
        (block): Sequential (
          (0): capConvRoute1 (
            (main_cap): Conv2d(128, 256, kernel_size=(3, 3), stride=(2, 2), padding=(1, 1), groups=32)
            (main_cap_coeff): Conv2d(256, 32, kernel_size=(3, 3), stride=(1, 1), padding=(1, 1), groups=32)
            (res_cap): Conv2d(128, 256, kernel_size=(3, 3), stride=(2, 2), padding=(1, 1))
            (res_squash): conv_squash(num_shared=32)
          )
        )
        (last_bn): BatchNorm2d(256, eps=1e-05, momentum=0.1, affine=True)
        (last_relu): ReLU ()
        (last_squash): conv_squash(num_shared=32)
      )
      (sub_conv): CapConv (
        (block): Sequential (
          (0): capConvRoute1 (
            (main_cap): Conv2d(256, 256, kernel_size=(1, 1), stride=(1, 1), groups=32)
            (main_cap_coeff): Conv2d(256, 32, kernel_size=(3, 3), stride=(1, 1), padding=(1, 1), groups=32)
            (res_cap): Conv2d(256, 256, kernel_size=(1, 1), stride=(1, 1))
            (res_squash): conv_squash(num_shared=32)
          )
          (1): BatchNorm2d(256, eps=1e-05, momentum=0.1, affine=True)
          (2): ReLU (inplace)
          (3): conv_squash(num_shared=32)
          (4): capConvRoute1 (
            (main_cap): Conv2d(256, 256, kernel_size=(1, 1), stride=(1, 1), groups=32)
            (main_cap_coeff): Conv2d(256, 32, kernel_size=(3, 3), stride=(1, 1), padding=(1, 1), groups=32)
            (res_cap): Conv2d(256, 256, kernel_size=(1, 1), stride=(1, 1))
            (res_squash): conv_squash(num_shared=32)
          )
          (5): BatchNorm2d(256, eps=1e-05, momentum=0.1, affine=True)
          (6): ReLU (inplace)
          (7): conv_squash(num_shared=32)
          (8): capConvRoute1 (
            (main_cap): Conv2d(256, 256, kernel_size=(1, 1), stride=(1, 1), groups=32)
            (main_cap_coeff): Conv2d(256, 32, kernel_size=(3, 3), stride=(1, 1), padding=(1, 1), groups=32)
            (res_cap): Conv2d(256, 256, kernel_size=(1, 1), stride=(1, 1))
            (res_squash): conv_squash(num_shared=32)
          )
          (9): BatchNorm2d(256, eps=1e-05, momentum=0.1, affine=True)
          (10): ReLU (inplace)
          (11): conv_squash(num_shared=32)
          (12): capConvRoute1 (
            (main_cap): Conv2d(256, 256, kernel_size=(1, 1), stride=(1, 1), groups=32)
            (main_cap_coeff): Conv2d(256, 32, kernel_size=(3, 3), stride=(1, 1), padding=(1, 1), groups=32)
            (res_cap): Conv2d(256, 256, kernel_size=(1, 1), stride=(1, 1))
            (res_squash): conv_squash(num_shared=32)
          )
        )
        (last_bn): BatchNorm2d(256, eps=1e-05, momentum=0.1, affine=True)
        (last_relu): ReLU ()
        (last_squash): conv_squash(num_shared=32)
      )
    )
    (module4): CapConv2 (
      (main_conv): CapConv (
        (conv_adjust_blob_shape): Conv2d(256, 512, kernel_size=(3, 3), stride=(2, 2), padding=(1, 1))
        (block): Sequential (
          (0): capConvRoute1 (
            (main_cap): Conv2d(256, 512, kernel_size=(3, 3), stride=(2, 2), padding=(1, 1), groups=32)
            (main_cap_coeff): Conv2d(512, 32, kernel_size=(3, 3), stride=(1, 1), padding=(1, 1), groups=32)
            (res_cap): Conv2d(256, 512, kernel_size=(3, 3), stride=(2, 2), padding=(1, 1))
            (res_squash): conv_squash(num_shared=32)
          )
        )
        (last_bn): BatchNorm2d(512, eps=1e-05, momentum=0.1, affine=True)
        (last_relu): ReLU ()
        (last_squash): conv_squash(num_shared=32)
      )
      (sub_conv): CapConv (
        (block): Sequential (
          (0): capConvRoute1 (
            (main_cap): Conv2d(512, 512, kernel_size=(1, 1), stride=(1, 1), groups=32)
            (main_cap_coeff): Conv2d(512, 32, kernel_size=(3, 3), stride=(1, 1), padding=(1, 1), groups=32)
            (res_cap): Conv2d(512, 512, kernel_size=(1, 1), stride=(1, 1))
            (res_squash): conv_squash(num_shared=32)
          )
          (1): BatchNorm2d(512, eps=1e-05, momentum=0.1, affine=True)
          (2): ReLU (inplace)
          (3): conv_squash(num_shared=32)
          (4): capConvRoute1 (
            (main_cap): Conv2d(512, 512, kernel_size=(1, 1), stride=(1, 1), groups=32)
            (main_cap_coeff): Conv2d(512, 32, kernel_size=(3, 3), stride=(1, 1), padding=(1, 1), groups=32)
            (res_cap): Conv2d(512, 512, kernel_size=(1, 1), stride=(1, 1))
            (res_squash): conv_squash(num_shared=32)
          )
          (5): BatchNorm2d(512, eps=1e-05, momentum=0.1, affine=True)
          (6): ReLU (inplace)
          (7): conv_squash(num_shared=32)
          (8): capConvRoute1 (
            (main_cap): Conv2d(512, 512, kernel_size=(1, 1), stride=(1, 1), groups=32)
            (main_cap_coeff): Conv2d(512, 32, kernel_size=(3, 3), stride=(1, 1), padding=(1, 1), groups=32)
            (res_cap): Conv2d(512, 512, kernel_size=(1, 1), stride=(1, 1))
            (res_squash): conv_squash(num_shared=32)
          )
          (9): BatchNorm2d(512, eps=1e-05, momentum=0.1, affine=True)
          (10): ReLU (inplace)
          (11): conv_squash(num_shared=32)
          (12): capConvRoute1 (
            (main_cap): Conv2d(512, 512, kernel_size=(1, 1), stride=(1, 1), groups=32)
            (main_cap_coeff): Conv2d(512, 32, kernel_size=(3, 3), stride=(1, 1), padding=(1, 1), groups=32)
            (res_cap): Conv2d(512, 512, kernel_size=(1, 1), stride=(1, 1))
            (res_squash): conv_squash(num_shared=32)
          )
        )
        (last_bn): BatchNorm2d(512, eps=1e-05, momentum=0.1, affine=True)
        (last_relu): ReLU ()
        (last_squash): conv_squash(num_shared=32)
      )
    )
    (final_cls): CapFC(in_cap_num=512, out_cap_num=10, cap_dim=16, fc_manner=default)
  ), weights=((32, 3, 3, 3), (32,), (32,), (32,), (64, 32, 3, 3), (64,), (64, 1, 3, 3), (64,), (32, 2, 3, 3), (32,), (64, 32, 3, 3), (64,), (64,), (64,), (64, 2, 1, 1), (64,), (3
…
