…
non_target_j: False
num_workers: 2
optim: adam
phase: train
port: 2000
prior_config: v2_512
resume: None
route_num: 4
save_epoch: 20
save_folder: result/cifar_base_104_no_relu_adam/train
schedule_cifar: [150, 225]
scheduler: None
send_images_to_visdom: False
show_freq: 5
show_test_after_epoch: -1
skip_pre_squash: False
skip_pre_transfer: False
ssd_dim: 512
start_epoch: 1
test_batch: 128
test_only: False
train_batch: 128
use_CE_loss: False
use_KL: False
use_cuda: True
use_spread_loss: False
version: v2
visdom: True
w_version: v2
weight_decay: 0.0005
------------------ End --------------------
CapsNet (
  (conv1): Conv2d(3, 16, kernel_size=(3, 3), stride=(1, 1), padding=(1, 1), bias=False)
  (bn1): BatchNorm2d(16, eps=1e-05, momentum=0.1, affine=True)
  (relu): ReLU (inplace)
  (layer1): Sequential (
    (0): BasicBlock (
      (conv1): Conv2d(16, 16, kernel_size=(3, 3), stride=(1, 1), padding=(1, 1), bias=False)
      (bn1): BatchNorm2d(16, eps=1e-05, momentum=0.1, affine=True)
      (relu): ReLU (inplace)
      (conv2): Conv2d(16, 16, kernel_size=(3, 3), stride=(1, 1), padding=(1, 1), bias=False)
      (bn2): BatchNorm2d(16, eps=1e-05, momentum=0.1, affine=True)
    )
    (1): BasicBlock (
      (conv1): Conv2d(16, 16, kernel_size=(3, 3), stride=(1, 1), padding=(1, 1), bias=False)
      (bn1): BatchNorm2d(16, eps=1e-05, momentum=0.1, affine=True)
      (relu): ReLU (inplace)
      (conv2): Conv2d(16, 16, kernel_size=(3, 3), stride=(1, 1), padding=(1, 1), bias=False)
      (bn2): BatchNorm2d(16, eps=1e-05, momentum=0.1, affine=True)
    )
    (2): BasicBlock (
      (conv1): Conv2d(16, 16, kernel_size=(3, 3), stride=(1, 1), padding=(1, 1), bias=False)
      (bn1): BatchNorm2d(16, eps=1e-05, momentum=0.1, affine=True)
      (relu): ReLU (inplace)
      (conv2): Conv2d(16, 16, kernel_size=(3, 3), stride=(1, 1), padding=(1, 1), bias=False)
      (bn2): BatchNorm2d(16, eps=1e-05, momentum=0.1, affine=True)
    )
  )
  (layer2): Sequential (
    (0): BasicBlock (
      (conv1): Conv2d(16, 32, kernel_size=(3, 3), stride=(2, 2), padding=(1, 1), bias=False)
      (bn1): BatchNorm2d(32, eps=1e-05, momentum=0.1, affine=True)
      (relu): ReLU (inplace)
      (conv2): Conv2d(32, 32, kernel_size=(3, 3), stride=(1, 1), padding=(1, 1), bias=False)
      (bn2): BatchNorm2d(32, eps=1e-05, momentum=0.1, affine=True)
      (downsample): Sequential (
        (0): Conv2d(16, 32, kernel_size=(1, 1), stride=(2, 2), bias=False)
        (1): BatchNorm2d(32, eps=1e-05, momentum=0.1, affine=True)
      )
    )
    (1): BasicBlock (
      (conv1): Conv2d(32, 32, kernel_size=(3, 3), stride=(1, 1), padding=(1, 1), bias=False)
      (bn1): BatchNorm2d(32, eps=1e-05, momentum=0.1, affine=True)
      (relu): ReLU (inplace)
      (conv2): Conv2d(32, 32, kernel_size=(3, 3), stride=(1, 1), padding=(1, 1), bias=False)
      (bn2): BatchNorm2d(32, eps=1e-05, momentum=0.1, affine=True)
    )
    (2): BasicBlock (
      (conv1): Conv2d(32, 32, kernel_size=(3, 3), stride=(1, 1), padding=(1, 1), bias=False)
      (bn1): BatchNorm2d(32, eps=1e-05, momentum=0.1, affine=True)
      (relu): ReLU (inplace)
      (conv2): Conv2d(32, 32, kernel_size=(3, 3), stride=(1, 1), padding=(1, 1), bias=False)
      (bn2): BatchNorm2d(32, eps=1e-05, momentum=0.1, affine=True)
    )
  )
  (layer3): Sequential (
    (0): BasicBlock (
      (conv1): Conv2d(32, 64, kernel_size=(3, 3), stride=(2, 2), padding=(1, 1), bias=False)
      (bn1): BatchNorm2d(64, eps=1e-05, momentum=0.1, affine=True)
      (relu): ReLU (inplace)
      (conv2): Conv2d(64, 64, kernel_size=(3, 3), stride=(1, 1), padding=(1, 1), bias=False)
      (bn2): BatchNorm2d(64, eps=1e-05, momentum=0.1, affine=True)
      (downsample): Sequential (
        (0): Conv2d(32, 64, kernel_size=(1, 1), stride=(2, 2), bias=False)
        (1): BatchNorm2d(64, eps=1e-05, momentum=0.1, affine=True)
      )
    )
    (1): BasicBlock (
      (conv1): Conv2d(64, 64, kernel_size=(3, 3), stride=(1, 1), padding=(1, 1), bias=False)
      (bn1): BatchNorm2d(64, eps=1e-05, momentum=0.1, affine=True)
      (relu): ReLU (inplace)
      (conv2): Conv2d(64, 64, kernel_size=(3, 3), stride=(1, 1), padding=(1, 1), bias=False)
      (bn2): BatchNorm2d(64, eps=1e-05, momentum=0.1, affine=True)
    )
    (2): BasicBlock (
      (conv1): Conv2d(64, 64, kernel_size=(3, 3), stride=(1, 1), padding=(1, 1), bias=False)
      (bn1): BatchNorm2d(64, eps=1e-05, momentum=0.1, affine=True)
      (relu): ReLU (inplace)
      (conv2): Conv2d(64, 64, kernel_size=(3, 3), stride=(1, 1), padding=(1, 1), bias=False)
      (bn2): BatchNorm2d(64, eps=1e-05, momentum=0.1, affine=True)
    )
  )
  (tranfer_conv): Conv2d(64, 256, kernel_size=(3, 3), stride=(1, 1))
  (tranfer_bn): BatchNorm2d(256, eps=1e-05, momentum=0.1, affine=True)
  (tranfer_relu): ReLU (inplace)
  (cap_layer): CapLayer (
    (W): Conv2d(256, 5120, kernel_size=(1, 1), stride=(1, 1), groups=32)
  )
)

init learning rate 0.001000 at iter 0

Train [cifar_base_104_no_relu_adam]	epoch [0/300]	iter [0/391]		data: 0.237s | batch: 1.542s	loss: 3.23004	acc: 10.93750	acc5: 46.87500
Train [cifar_base_104_no_relu_adam]	epoch [0/300]	iter [5/391]		data: 0.044s | batch: 0.373s	loss: 2.03406	acc: 9.11458	acc5: 50.00000
Train [cifar_base_104_no_relu_adam]	epoch [0/300]	iter [10/391]		data: 0.026s | batch: 0.264s	loss: 1.54167	acc: 9.09091	acc5: 52.62784
…
