…
file_name: result/cap_102_v2/opt_train_val_START_epoch_0_END_600.txt
gamma: 0.1
layerwise: False
less_data_aug: True
loss_form: margin
lr: 0.0001
manner: 1
manual_seed: -1
max_epoch: 600
measure_time: False
momentum: 0.9
more_skip: False
multi_crop_test: False
no_visdom: False
non_target_j: False
num_workers: 2
optim: adam
phase: train_val
port_id: 8000
random_seed: 4069
s35: False
save_epoch: 1
save_folder: result/cap_102_v2
schedule: [200, 300, 400]
show_freq: 1
show_test_after_epoch: 0
use_cuda: True
weight_decay: 0.0005
wider: False
------------------ End --------------------
CapNet (
  (module0): Sequential (
    (0): Conv2d(3, 32, kernel_size=(3, 3), stride=(1, 1), padding=(1, 1)), weights=((32, 3, 3, 3), (32,)), parameters=896
    (1): BatchNorm2d(32, eps=1e-05, momentum=0.1, affine=True), weights=((32,), (32,)), parameters=64
    (2): ReLU (inplace), weights=(), parameters=0
  ), weights=((32, 3, 3, 3), (32,), (32,), (32,)), parameters=960
  (module1): CapConv2 (
    (main_conv): CapConv (
      (conv_adjust_blob_shape): Conv2d(32, 64, kernel_size=(3, 3), stride=(1, 1), padding=(1, 1))
      (block): Sequential (
        (0): capConvRoute1 (
          (main_cap): Sequential (
            (0): Conv2d(32, 64, kernel_size=(3, 3), stride=(1, 1), padding=(1, 1), groups=32)
            (1): BatchNorm2d(64, eps=1e-05, momentum=0.1, affine=True)
            (2): ReLU ()
            (3): conv_squash(num_shared=32)
          )
          (main_cap_coeff): Conv2d(64, 32, kernel_size=(3, 3), stride=(1, 1), padding=(1, 1), groups=32)
          (res_cap): Sequential (
            (0): Conv2d(32, 64, kernel_size=(3, 3), stride=(1, 1), padding=(1, 1))
            (1): BatchNorm2d(64, eps=1e-05, momentum=0.1, affine=True)
            (2): ReLU ()
            (3): conv_squash(num_shared=32)
          )
        )
      )
      (last_squash): conv_squash(num_shared=32)
    )
    (sub_conv): CapConv (
      (block): Sequential (
        (0): capConvRoute1 (
          (main_cap): Sequential (
            (0): Conv2d(64, 64, kernel_size=(1, 1), stride=(1, 1), groups=32)
            (1): BatchNorm2d(64, eps=1e-05, momentum=0.1, affine=True)
            (2): ReLU ()
            (3): conv_squash(num_shared=32)
          )
          (main_cap_coeff): Conv2d(64, 32, kernel_size=(3, 3), stride=(1, 1), padding=(1, 1), groups=32)
          (res_cap): Sequential (
            (0): Conv2d(64, 64, kernel_size=(1, 1), stride=(1, 1))
            (1): BatchNorm2d(64, eps=1e-05, momentum=0.1, affine=True)
            (2): ReLU ()
            (3): conv_squash(num_shared=32)
          )
        )
        (1): conv_squash(num_shared=32)
        (2): capConvRoute1 (
          (main_cap): Sequential (
            (0): Conv2d(64, 64, kernel_size=(1, 1), stride=(1, 1), groups=32)
            (1): BatchNorm2d(64, eps=1e-05, momentum=0.1, affine=True)
            (2): ReLU ()
            (3): conv_squash(num_shared=32)
          )
          (main_cap_coeff): Conv2d(64, 32, kernel_size=(3, 3), stride=(1, 1), padding=(1, 1), groups=32)
          (res_cap): Sequential (
            (0): Conv2d(64, 64, kernel_size=(1, 1), stride=(1, 1))
            (1): BatchNorm2d(64, eps=1e-05, momentum=0.1, affine=True)
            (2): ReLU ()
            (3): conv_squash(num_shared=32)
          )
        )
        (3): conv_squash(num_shared=32)
        (4): capConvRoute1 (
          (main_cap): Sequential (
            (0): Conv2d(64, 64, kernel_size=(1, 1), stride=(1, 1), groups=32)
            (1): BatchNorm2d(64, eps=1e-05, momentum=0.1, affine=True)
            (2): ReLU ()
            (3): conv_squash(num_shared=32)
          )
          (main_cap_coeff): Conv2d(64, 32, kernel_size=(3, 3), stride=(1, 1), padding=(1, 1), groups=32)
          (res_cap): Sequential (
            (0): Conv2d(64, 64, kernel_size=(1, 1), stride=(1, 1))
            (1): BatchNorm2d(64, eps=1e-05, momentum=0.1, affine=True)
            (2): ReLU ()
            (3): conv_squash(num_shared=32)
          )
        )
        (5): conv_squash(num_shared=32)
        (6): capConvRoute1 (
          (main_cap): Sequential (
            (0): Conv2d(64, 64, kernel_size=(1, 1), stride=(1, 1), groups=32)
            (1): BatchNorm2d(64, eps=1e-05, momentum=0.1, affine=True)
            (2): ReLU ()
            (3): conv_squash(num_shared=32)
          )
          (main_cap_coeff): Conv2d(64, 32, kernel_size=(3, 3), stride=(1, 1), padding=(1, 1), groups=32)
          (res_cap): Sequential (
            (0): Conv2d(64, 64, kernel_size=(1, 1), stride=(1, 1))
            (1): BatchNorm2d(64, eps=1e-05, momentum=0.1, affine=True)
            (2): ReLU ()
            (3): conv_squash(num_shared=32)
          )
        )
      )
      (last_squash): conv_squash(num_shared=32)
    )
  ), weights=((64, 32, 3, 3), (64,), (64, 1, 3, 3), (64,), (64,), (64,), (32, 2, 3, 3), (32,), (64, 32, 3, 3), (64,), (64,), (64,), (64, 2, 1, 1), (64,), (64,), (64,), (32, 2, 3, 3), (32,), (64, 64, 1, 1), (64,), (64,), (64,), (64, 2, 1, 1), (64,), (64,), (64,), (32, 2, 3, 3), (32,), (64, 64, 1, 1), (64,), (64,), (64,), (64, 2, 1, 1), (64,), (64,), (64,), (32, 2, 3, 3), (32,), (64, 64, 1, 1), (64,), (64,), (64,), (64, 2, 1, 1), (64,), (64,), (64,), (32, 2, 3, 3), (32,), (64, 64, 1, 1), (64,), (64,), (64,)), parameters=59360
  (module2): CapConv2 (
    (main_conv): CapConv (
      (conv_adjust_blob_shape): Conv2d(64, 128, kernel_size=(3, 3), stride=(2, 2), padding=(1, 1))
      (block): Sequential (
        (0): capConvRoute1 (
          (main_cap): Sequential (
            (0): Conv2d(64, 128, kernel_size=(3, 3), stride=(2, 2), padding=(1, 1), groups=32)
            (1): BatchNorm2d(128, eps=1e-05, momentum=0.1, affine=True)
            (2): ReLU ()
            (3): conv_squash(num_shared=32)
          )
          (main_cap_coeff): Conv2d(128, 32, kernel_size=(3, 3), stride=(1, 1), padding=(1, 1), groups=32)
          (res_cap): Sequential (
            (0): Conv2d(64, 128, kernel_size=(3, 3), stride=(2, 2), padding=(1, 1))
            (1): BatchNorm2d(128, eps=1e-05, momentum=0.1, affine=True)
            (2): ReLU ()
            (3): conv_squash(num_shared=32)
          )
        )
      )
      (last_squash): conv_squash(num_shared=32)
    )
    (sub_conv): CapConv (
      (block): Sequential (
        (0): capConvRoute1 (
          (main_cap): Sequential (
            (0): Conv2d(128, 128, kernel_size=(1, 1), stride=(1, 1), groups=32)
            (1): BatchNorm2d(128, eps=1e-05, momentum=0.1, affine=True)
            (2): ReLU ()
            (3): conv_squash(num_shared=32)
          )
          (main_cap_coeff): Conv2d(128, 32, kernel_size=(3, 3), stride=(1, 1), padding=(1, 1), groups=32)
          (res_cap): Sequential (
            (0): Conv2d(128, 128, kernel_size=(1, 1), stride=(1, 1))
            (1): BatchNorm2d(128, eps=1e-05, momentum=0.1, affine=True)
            (2): ReLU ()
            (3): conv_squash(num_shared=32)
          )
        )
        (1): conv_squash(num_shared=32)
        (2): capConvRoute1 (
          (main_cap): Sequential (
            (0): Conv2d(128, 128, kernel_size=(1, 1), stride=(1, 1), groups=32)
            (1): BatchNorm2d(128, eps=1e-05, momentum=0.1, affine=True)
            (2): ReLU ()
            (3): conv_squash(num_shared=32)
          )
          (main_cap_coeff): Conv2d(128, 32, kernel_size=(3, 3), stride=(1, 1), padding=(1, 1), groups=32)
          (res_cap): Sequential (
            (0): Conv2d(128, 128, kernel_size=(1, 1), stride=(1, 1))
            (1): BatchNorm2d(128, eps=1e-05, momentum=0.1, affine=True)
            (2): ReLU ()
            (3): conv_squash(num_shared=32)
          )
        )
        (3): conv_squash(num_shared=32)
        (4): capConvRoute1 (
          (main_cap): Sequential (
            (0): Conv2d(128, 128, kernel_size=(1, 1), stride=(1, 1), groups=32)
            (1): BatchNorm2d(128, eps=1e-05, momentum=0.1, affine=True)
            (2): ReLU ()
            (3): conv_squash(num_shared=32)
          )
          (main_cap_coeff): Conv2d(128, 32, kernel_size=(3, 3), stride=(1, 1), padding=(1, 1), groups=32)
          (res_cap): Sequential (
            (0): Conv2d(128, 128, kernel_size=(1, 1), stride=(1, 1))
            (1): BatchNorm2d(128, eps=1e-05, momentum=0.1, affine=True)
            (2): ReLU ()
            (3): conv_squash(num_shared=32)
          )
        )
        (5): conv_squash(num_shared=32)
        (6): capConvRoute1 (
          (main_cap): Sequential (
            (0): Conv2d(128, 128, kernel_size=(1, 1), stride=(1, 1), groups=32)
            (1): BatchNorm2d(128, eps=1e-05, momentum=0.1, affine=True)
            (2): ReLU ()
            (3): conv_squash(num_shared=32)
          )
          (main_cap_coeff): Conv2d(128, 32, kernel_size=(3, 3), stride=(1, 1), padding=(1, 1), groups=32)
          (res_cap): Sequential (
            (0): Conv2d(128, 128, kernel_size=(1, 1), stride=(1, 1))
            (1): BatchNorm2d(128, eps=1e-05, momentum=0.1, affine=True)
            (2): ReLU ()
            (3): conv_squash(num_shared=32)
          )
        )
      )
      (last_squash): conv_squash(num_shared=32)
    )
  ), weights=((128, 64, 3, 3), (128,), (128, 2, 3, 3), (128,), (128,), (128,), (32, 4, 3, 3), (32,), (128, 64, 3, 3), (128,), (128,), (128,), (128, 4, 1, 1), (128,), (128,), (128,), (32, 4, 3, 3), (32,), (128, 128, 1, 1), (128,), (128,), (128,), (128, 4, 1, 1), (128,), (128,), (128,), (32, 4, 3, 3), (32,), (128, 128, 1, 1), (128,), (128,), (128,), (128, 4, 1, 1), (128,), (128,), (128,), (32, 4, 3, 3), (32,), (128, 128, 1, 1), (128,), (128,), (128,), (128, 4, 1, 1), (128,), (128,), (128,), (32, 4, 3, 3), (32,), (128, 128, 1, 1), (128,), (128,), (128,)), parameters=227232
  (module3): CapConv2 (
    (main_conv): CapConv (
      (conv_adjust_blob_shape): Conv2d(128, 256, kernel_size=(3, 3), stride=(2, 2), padding=(1, 1))
      (block): Sequential (
        (0): capConvRoute1 (
          (main_cap): Sequential (
            (0): Conv2d(128, 256, kernel_size=(3, 3), stride=(2, 2), padding=(1, 1), groups=32)
            (1): BatchNorm2d(256, eps=1e-05, momentum=0.1, affine=True)
            (2): ReLU ()
            (3): conv_squash(num_shared=32)
          )
          (main_cap_coeff): Conv2d(256, 32, kernel_size=(3, 3), stride=(1, 1), padding=(1, 1), groups=32)
          (res_cap): Sequential (
            (0): Conv2d(128, 256, kernel_size=(3, 3), stride=(2, 2), padding=(1, 1))
            (1): BatchNorm2d(256, eps=1e-05, momentum=0.1, affine=True)
            (2): ReLU ()
            (3): conv_squash(num_shared=32)
          )
        )
      )
      (last_squash): conv_squash(num_shared=32)
    )
    (sub_conv): CapConv (
      (block): Sequential (
        (0): capConvRoute1 (
          (main_cap): Sequential (
            (0): Conv2d(256, 256, kernel_size=(1, 1), stride=(1, 1), groups=32)
            (1): BatchNorm2d(256, eps=1e-05, momentum=0.1, affine=True)
            (2): ReLU ()
            (3): conv_squash(num_shared=32)
          )
          (main_cap_coeff): Conv2d(256, 32, kernel_size=(3, 3), stride=(1, 1), padding=(1, 1), groups=32)
          (res_cap): Sequential (
            (0): Conv2d(256, 256, kernel_size=(1, 1), stride=(1, 1))
            (1): BatchNorm2d(256, eps=1e-05, momentum=0.1, affine=True)
            (2): ReLU ()
            (3): conv_squash(num_shared=32)
          )
        )
        (1): conv_squash(num_shared=32)
        (2): capConvRoute1 (
          (main_cap): Sequential (
            (0): Conv2d(256, 256, kernel_size=(1, 1), stride=(1, 1), groups=32)
            (1): BatchNorm2d(256, eps=1e-05, momentum=0.1, affine=True)
            (2): ReLU ()
            (3): conv_squash(num_shared=32)
          )
          (main_cap_coeff): Conv2d(256, 32, kernel_size=(3, 3), stride=(1, 1), padding=(1, 1), groups=32)
          (res_cap): Sequential (
            (0): Conv2d(256, 256, kernel_size=(1, 1), stride=(1, 1))
            (1): BatchNorm2d(256, eps=1e-05, momentum=0.1, affine=True)
            (2): ReLU ()
            (3): conv_squash(num_shared=32)
          )
        )
        (3): conv_squash(num_shared=32)
        (4): capConvRoute1 (
          (main_cap): Sequential (
            (0): Conv2d(256, 256, kernel_size=(1, 1), stride=(1, 1), groups=32)
            (1): BatchNorm2d(256, eps=1e-05, momentum=0.1, affine=True)
            (2): ReLU ()
            (3): conv_squash(num_shared=32)
          )
          (main_cap_coeff): Conv2d(256, 32, kernel_size=(3, 3), stride=(1, 1), padding=(1, 1), groups=32)
          (res_cap): Sequential (
            (0): Conv2d(256, 256, kernel_size=(1, 1), stride=(1, 1))
            (1): BatchNorm2d(256, eps=1e-05, momentum=0.1, affine=True)
            (2): ReLU ()
            (3): conv_squash(num_shared=32)
          )
        )
        (5): conv_squash(num_shared=32)
        (6): capConvRoute1 (
          (main_cap): Sequential (
            (0): Conv2d(256, 256, kernel_size=(1, 1), stride=(1, 1), groups=32)
            (1): BatchNorm2d(256, eps=1e-05, momentum=0.1, affine=True)
            (2): ReLU ()
            (3): conv_squash(num_shared=32)
          )
          (main_cap_coeff): Conv2d(256, 32, kernel_size=(3, 3), stride=(1, 1), padding=(1, 1), groups=32)
          (res_cap): Sequential (
            (0): Conv2d(256, 256, kernel_size=(1, 1), stride=(1, 1))
            (1): BatchNorm2d(256, eps=1e-05, momentum=0.1, affine=True)
            (2): ReLU ()
            (3): conv_squash(num_shared=32)
          )
        )
      )
      (last_squash): conv_squash(num_shared=32)
    )
  ), weights=((256, 128, 3, 3), (256,), (256, 4, 3, 3), (256,), (256,), (256,), (32, 8, 3, 3), (32,), (256, 128, 3, 3), (256,), (256,), (256,), (256, 8, 1, 1), (256,), (256,), (256,), (32, 8, 3, 3), (32,), (256, 256, 1, 1), (256,), (256,), (256,), (256, 8, 1, 1), (256,), (256,), (256,), (32, 8, 3, 3), (32,), (256, 256, 1, 1), (256,), (256,), (256,), (256, 8, 1, 1), (256,), (256,), (256,), (32, 8, 3, 3), (32,), (256, 256, 1, 1), (256,), (256,), (256,), (256, 8, 1, 1), (256,), (256,), (256,), (32, 8, 3, 3), (32,), (256, 256, 1, 1), (256,), (256,), (256,)), parameters=888992
  (module4): CapConv2 (
    (main_conv): CapConv (
      (conv_adjust_blob_shape): Conv2d(256, 512, kernel_size=(3, 3), stride=(2, 2), padding=(1, 1))
      (block): Sequential (
        (0): capConvRoute1 (
          (main_cap): Sequential (
            (0): Conv2d(256, 512, kernel_size=(3, 3), stride=(2, 2), padding=(1, 1), groups=32)
            (1): BatchNorm2d(512, eps=1e-05, momentum=0.1, affine=True)
            (2): ReLU ()
            (3): conv_squash(num_shared=32)
          )
          (main_cap_coeff): Conv2d(512, 32, kernel_size=(3, 3), stride=(1, 1), padding=(1, 1), groups=32)
          (res_cap): Sequential (
            (0): Conv2d(256, 512, kernel_size=(3, 3), stride=(2, 2), padding=(1, 1))
            (1): BatchNorm2d(512, eps=1e-05, momentum=0.1, affine=True)
            (2): ReLU ()
            (3): conv_squash(num_shared=32)
          )
        )
      )
      (last_squash): conv_squash(num_shared=32)
    )
    (sub_conv): CapConv (
      (block): Sequential (
        (0): capConvRoute1 (
          (main_cap): Sequential (
            (0): Conv2d(512, 512, kernel_size=(1, 1), stride=(1, 1), groups=32)
            (1): BatchNorm2d(512, eps=1e-05, momentum=0.1, affine=True)
            (2): ReLU ()
            (3): conv_squash(num_shared=32)
          )
          (main_cap_coeff): Conv2d(512, 32, kernel_size=(3, 3), stride=(1, 1), padding=(1, 1), groups=32)
          (res_cap): Sequential (
            (0): Conv2d(512, 512, kernel_size=(1, 1), stride=(1, 1))
            (1): BatchNorm2d(512, eps=1e-05, momentum=0.1, affine=True)
            (2): ReLU ()
            (3): conv_squash(num_shared=32)
          )
        )
        (1): conv_squash(num_shared=32)
        (2): capConvRoute1 (
          (main_cap): Sequential (
            (0): Conv2d(512, 512, kernel_size=(1, 1), stride=(1, 1), groups=32)
            (1): BatchNorm2d(512, eps=1e-05, momentum=0.1, affine=True)
            (2): ReLU ()
            (3): conv_squash(num_shared=32)
          )
          (main_cap_coeff): Conv2d(512, 32, kernel_size=(3, 3), stride=(1, 1), padding=(1, 1), groups=32)
          (res_cap): Sequential (
            (0): Conv2d(512, 512, kernel_size=(1, 1), stride=(1, 1))
            (1): BatchNorm2d(512, eps=1e-05, momentum=0.1, affine=True)
            (2): ReLU ()
            (3): conv_squash(num_shared=32)
          )
        )
        (3): conv_squash(num_shared=32)
        (4): capConvRoute1 (
          (main_cap): Sequential (
            (0): Conv2d(512, 512, kernel_size=(1, 1), stride=(1, 1), groups=32)
            (1): BatchNorm2d(512, eps=1e-05, momentum=0.1, affine=True)
            (2): ReLU ()
            (3): conv_squash(num_shared=32)
          )
          (main_cap_coeff): Conv2d(512, 32, kernel_size=(3, 3), stride=(1, 1), padding=(1, 1), groups=32)
          (res_cap): Sequential (
            (0): Conv2d(512, 512, kernel_size=(1, 1), stride=(1, 1))
            (1): BatchNorm2d(512, eps=1e-05, momentum=0.1, affine=True)
            (2): ReLU ()
            (3): conv_squash(num_shared=32)
          )
        )
        (5): conv_squash(num_shared=32)
        (6): capConvRoute1 (
          (main_cap): Sequential (
            (0): Conv2d(512, 512, kernel_size=(1, 1), stride=(1, 1), groups=32)
            (1): BatchNorm2d(512, eps=1e-05, momentum=0.1, affine=True)
            (2): ReLU ()
            (3): conv_squash(num_shared=32)
          )
          (main_cap_coeff): Conv2d(512, 32, kernel_size=(3, 3), stride=(1, 1), padding=(1, 1), groups=32)
          (res_cap): Sequential (
            (0): Conv2d(512, 512, kernel_size=(1, 1), stride=(1, 1))
            (1): BatchNorm2d(512, eps=1e-05, momentum=0.1, affine=True)
            (2): ReLU ()
            (3): conv_squash(num_shared=32)
          )
        )
      )
      (last_squash): conv_squash(num_shared=32)
    )
  ), weights=((512, 256, 3, 3), (512,), (512, 8, 3, 3), (512,), (512,), (512,), (32, 16, 3, 3), (32,), (512, 256, 3, 3), (512,), (512,), (512,), (512, 16, 1, 1), (512,), (512,), (512,), (32, 16, 3, 3), (3
…
