…
lr: 0.0001
manual_seed: 7356
max_epoch: 300
model_cifar: capsule
momentum: 0.9
multi_crop_test: True
non_target_j: False
num_workers: 2
optim: adam
phase: train
port: 2000
route_num: 4
save_epoch: 20
save_folder: result/capsule_201_adam_N_3/train
schedule_cifar: [150, 225]
scheduler: None
send_images_to_visdom: False
show_freq: 5
show_test_after_epoch: -1
start_epoch: 1
test_batch: 128
test_only: False
train_batch: 128
use_CE_loss: False
use_KL: False
use_cuda: True
use_spread_loss: False
visdom: True
w_version: v2
weight_decay: 0.0005
------------------ End --------------------
CapsNet (
  (conv1): Conv2d(3, 16, kernel_size=(3, 3), stride=(1, 1), padding=(1, 1), bias=False)
  (bn1): BatchNorm2d(16, eps=1e-05, momentum=0.1, affine=True)
  (relu): ReLU (inplace)
  (layer1): Sequential (
    (0): BasicBlock (
      (conv1): Conv2d(16, 16, kernel_size=(3, 3), stride=(1, 1), padding=(1, 1), bias=False)
      (bn1): BatchNorm2d(16, eps=1e-05, momentum=0.1, affine=True)
      (relu): ReLU (inplace)
      (conv2): Conv2d(16, 16, kernel_size=(3, 3), stride=(1, 1), padding=(1, 1), bias=False)
      (bn2): BatchNorm2d(16, eps=1e-05, momentum=0.1, affine=True)
    )
    (1): BasicBlock (
      (conv1): Conv2d(16, 16, kernel_size=(3, 3), stride=(1, 1), padding=(1, 1), bias=False)
      (bn1): BatchNorm2d(16, eps=1e-05, momentum=0.1, affine=True)
      (relu): ReLU (inplace)
      (conv2): Conv2d(16, 16, kernel_size=(3, 3), stride=(1, 1), padding=(1, 1), bias=False)
      (bn2): BatchNorm2d(16, eps=1e-05, momentum=0.1, affine=True)
    )
    (2): BasicBlock (
      (conv1): Conv2d(16, 16, kernel_size=(3, 3), stride=(1, 1), padding=(1, 1), bias=False)
      (bn1): BatchNorm2d(16, eps=1e-05, momentum=0.1, affine=True)
      (relu): ReLU (inplace)
      (conv2): Conv2d(16, 16, kernel_size=(3, 3), stride=(1, 1), padding=(1, 1), bias=False)
      (bn2): BatchNorm2d(16, eps=1e-05, momentum=0.1, affine=True)
    )
  )
  (layer2): Sequential (
    (0): BasicBlock (
      (conv1): Conv2d(16, 32, kernel_size=(3, 3), stride=(2, 2), padding=(1, 1), bias=False)
      (bn1): BatchNorm2d(32, eps=1e-05, momentum=0.1, affine=True)
      (relu): ReLU (inplace)
      (conv2): Conv2d(32, 32, kernel_size=(3, 3), stride=(1, 1), padding=(1, 1), bias=False)
      (bn2): BatchNorm2d(32, eps=1e-05, momentum=0.1, affine=True)
      (downsample): Sequential (
        (0): Conv2d(16, 32, kernel_size=(1, 1), stride=(2, 2), bias=False)
        (1): BatchNorm2d(32, eps=1e-05, momentum=0.1, affine=True)
      )
    )
    (1): BasicBlock (
      (conv1): Conv2d(32, 32, kernel_size=(3, 3), stride=(1, 1), padding=(1, 1), bias=False)
      (bn1): BatchNorm2d(32, eps=1e-05, momentum=0.1, affine=True)
      (relu): ReLU (inplace)
      (conv2): Conv2d(32, 32, kernel_size=(3, 3), stride=(1, 1), padding=(1, 1), bias=False)
      (bn2): BatchNorm2d(32, eps=1e-05, momentum=0.1, affine=True)
    )
    (2): BasicBlock (
      (conv1): Conv2d(32, 32, kernel_size=(3, 3), stride=(1, 1), padding=(1, 1), bias=False)
      (bn1): BatchNorm2d(32, eps=1e-05, momentum=0.1, affine=True)
      (relu): ReLU (inplace)
      (conv2): Conv2d(32, 32, kernel_size=(3, 3), stride=(1, 1), padding=(1, 1), bias=False)
      (bn2): BatchNorm2d(32, eps=1e-05, momentum=0.1, affine=True)
    )
  )
  (layer3): Sequential (
    (0): BasicBlock (
      (conv1): Conv2d(32, 64, kernel_size=(3, 3), stride=(2, 2), padding=(1, 1), bias=False)
      (bn1): BatchNorm2d(64, eps=1e-05, momentum=0.1, affine=True)
      (relu): ReLU (inplace)
      (conv2): Conv2d(64, 64, kernel_size=(3, 3), stride=(1, 1), padding=(1, 1), bias=False)
      (bn2): BatchNorm2d(64, eps=1e-05, momentum=0.1, affine=True)
      (downsample): Sequential (
        (0): Conv2d(32, 64, kernel_size=(1, 1), stride=(2, 2), bias=False)
        (1): BatchNorm2d(64, eps=1e-05, momentum=0.1, affine=True)
      )
    )
    (1): BasicBlock (
      (conv1): Conv2d(64, 64, kernel_size=(3, 3), stride=(1, 1), padding=(1, 1), bias=False)
      (bn1): BatchNorm2d(64, eps=1e-05, momentum=0.1, affine=True)
      (relu): ReLU (inplace)
      (conv2): Conv2d(64, 64, kernel_size=(3, 3), stride=(1, 1), padding=(1, 1), bias=False)
      (bn2): BatchNorm2d(64, eps=1e-05, momentum=0.1, affine=True)
    )
    (2): BasicBlock (
      (conv1): Conv2d(64, 64, kernel_size=(3, 3), stride=(1, 1), padding=(1, 1), bias=False)
      (bn1): BatchNorm2d(64, eps=1e-05, momentum=0.1, affine=True)
      (relu): ReLU (inplace)
      (conv2): Conv2d(64, 64, kernel_size=(3, 3), stride=(1, 1), padding=(1, 1), bias=False)
      (bn2): BatchNorm2d(64, eps=1e-05, momentum=0.1, affine=True)
    )
  )
  (tranfer_conv): Conv2d(64, 256, kernel_size=(3, 3), stride=(1, 1))
  (tranfer_bn): BatchNorm2d(256, eps=1e-05, momentum=0.1, affine=True)
  (tranfer_relu): ReLU (inplace)
  (buffer): Sequential (
    (0): Conv2d(64, 64, kernel_size=(1, 1), stride=(1, 1))
    (1): ReLU (inplace)
  )
  (basic_cap): CapLayer2 (
    (W): Conv2d(64, 4096, kernel_size=(1, 1), stride=(1, 1))
  )
  (cls_cap): CapLayer2 (
    (W): Conv2d(64, 640, kernel_size=(1, 1), stride=(1, 1))
  )
)

init learning rate 0.000100 at iter 0

Train [capsule_201_adam_N_3]	epoch [0/300]	iter [0/391]		data: 0.182s | batch: 5.276s	loss: 3.08235	acc: 13.28125	acc5: 46.87500
Train [capsule_201_adam_N_3]	epoch [0/300]	iter [5/391]		data: 0.034s | batch: 2.507s	loss: 3.07918	acc: 10.28646	acc5: 46.74479
Train [capsule_201_adam_N_3]	epoch [0/300]	iter [10/391]		data: 0.020s | batch: 2.272s	loss: 3.07472	acc: 10.01420	acc5: 49.64489
…
