…
max_epoch: 600
measure_time: False
momentum: 0.9
multi_crop_test: False
net_config: default
no_bp_P_L: False
no_visdom: False
non_target_j: False
num_workers: 2
optim: rmsprop
ot_loss: False
ot_loss_fac: 1.0
phase: train_val
port_id: 8000
random_seed: 972
remove_bias: False
s35: False
save_epoch: 25
save_folder: result/paper/baseline_cifar10
schedule: [200, 300, 400]
show_freq: 100
show_test_after_epoch: 100
skip_critic: False
skip_relu: False
use_capBN: False
use_cuda: True
weight_decay: 0.0005
withCapRoute: False
------------------ End --------------------
DataParallel (
  (module): CapNet(
    (conv1): Conv2d(3, 16, kernel_size=(3, 3), stride=(1, 1), padding=(1, 1), bias=False)
    (bn1): BatchNorm2d(16, eps=1e-05, momentum=0.1, affine=True)
    (relu): ReLU(inplace)
    (layer1): Sequential(
      (0): BasicBlock(
        (conv1): Conv2d(16, 16, kernel_size=(3, 3), stride=(1, 1), padding=(1, 1), bias=False)
        (bn1): BatchNorm2d(16, eps=1e-05, momentum=0.1, affine=True)
        (relu): ReLU(inplace)
        (conv2): Conv2d(16, 16, kernel_size=(3, 3), stride=(1, 1), padding=(1, 1), bias=False)
        (bn2): BatchNorm2d(16, eps=1e-05, momentum=0.1, affine=True)
      )
      (1): BasicBlock(
        (conv1): Conv2d(16, 16, kernel_size=(3, 3), stride=(1, 1), padding=(1, 1), bias=False)
        (bn1): BatchNorm2d(16, eps=1e-05, momentum=0.1, affine=True)
        (relu): ReLU(inplace)
        (conv2): Conv2d(16, 16, kernel_size=(3, 3), stride=(1, 1), padding=(1, 1), bias=False)
        (bn2): BatchNorm2d(16, eps=1e-05, momentum=0.1, affine=True)
      )
    )
    (layer2): Sequential(
      (0): BasicBlock(
        (conv1): Conv2d(16, 32, kernel_size=(3, 3), stride=(2, 2), padding=(1, 1), bias=False)
        (bn1): BatchNorm2d(32, eps=1e-05, momentum=0.1, affine=True)
        (relu): ReLU(inplace)
        (conv2): Conv2d(32, 32, kernel_size=(3, 3), stride=(1, 1), padding=(1, 1), bias=False)
        (bn2): BatchNorm2d(32, eps=1e-05, momentum=0.1, affine=True)
        (downsample): Sequential(
          (0): Conv2d(16, 32, kernel_size=(1, 1), stride=(2, 2), bias=False)
          (1): BatchNorm2d(32, eps=1e-05, momentum=0.1, affine=True)
        )
      )
      (1): BasicBlock(
        (conv1): Conv2d(32, 32, kernel_size=(3, 3), stride=(1, 1), padding=(1, 1), bias=False)
        (bn1): BatchNorm2d(32, eps=1e-05, momentum=0.1, affine=True)
        (relu): ReLU(inplace)
        (conv2): Conv2d(32, 32, kernel_size=(3, 3), stride=(1, 1), padding=(1, 1), bias=False)
        (bn2): BatchNorm2d(32, eps=1e-05, momentum=0.1, affine=True)
      )
    )
    (layer3): Sequential(
      (0): BasicBlock(
        (conv1): Conv2d(32, 64, kernel_size=(3, 3), stride=(2, 2), padding=(1, 1), bias=False)
        (bn1): BatchNorm2d(64, eps=1e-05, momentum=0.1, affine=True)
        (relu): ReLU(inplace)
        (conv2): Conv2d(64, 64, kernel_size=(3, 3), stride=(1, 1), padding=(1, 1), bias=False)
        (bn2): BatchNorm2d(64, eps=1e-05, momentum=0.1, affine=True)
        (downsample): Sequential(
          (0): Conv2d(32, 64, kernel_size=(1, 1), stride=(2, 2), bias=False)
          (1): BatchNorm2d(64, eps=1e-05, momentum=0.1, affine=True)
        )
      )
      (1): BasicBlock(
        (conv1): Conv2d(64, 64, kernel_size=(3, 3), stride=(1, 1), padding=(1, 1), bias=False)
        (bn1): BatchNorm2d(64, eps=1e-05, momentum=0.1, affine=True)
        (relu): ReLU(inplace)
        (conv2): Conv2d(64, 64, kernel_size=(3, 3), stride=(1, 1), padding=(1, 1), bias=False)
        (bn2): BatchNorm2d(64, eps=1e-05, momentum=0.1, affine=True)
      )
    )
    (avgpool): AvgPool2d(kernel_size=8, stride=1, padding=0, ceil_mode=False, count_include_pad=True)
    (fc): Linear(in_features=64, out_features=10, bias=True)
  ), weights=((16, 3, 3, 3), (16,), (16,), (16, 16, 3, 3), (16,), (16,), (16, 16, 3, 3), (16,), (16,), (16, 16, 3, 3), (16,), (16,), (16, 16, 3, 3), (16,), (16,), (32, 16, 3, 3), (32,), (32,), (32, 32, 3, 3), (32,), (32,), (32, 16, 1, 1), (32,), (32,), (32, 32, 3, 3), (32,), (32,), (32, 32, 3, 3), (32,), (32,), (64, 32, 3, 3), (64,), (64,), (64, 64, 3, 3), (64,), (64,), (64, 32, 1, 1), (64,), (64,), (64, 64, 3, 3), (64,), (64,), (64, 64, 3, 3), (64,), (64,), (10, 64), (10,)), parameters=175258
…
