…
lr: 0.0001
manual_seed: -1
max_epoch: 500
momentum: 0.9
multi_crop_test: False
no_visdom: False
non_target_j: False
num_workers: 2
optim: rmsprop
phase: train_val
port_id: 8000
pre_ch_num: 32
primary_cap_num: 32
random_seed: 5521
route_num: 3
save_epoch: 25
save_folder: result/base_200_v2
schedule: [200, 300, 400]
scheduler: None
setting: top1
show_freq: 100
show_test_after_epoch: 100
squash_manner: paper
use_KL: False
use_cuda: True
use_instanceBN: False
use_multiple: False
w_version: v2
weight_decay: 0.0005
------------------ End --------------------
DataParallel (
  (module): CapsNet (
    (conv1): Conv2d(3, 16, kernel_size=(3, 3), stride=(2, 2), padding=(1, 1), bias=False)
    (bn1): BatchNorm2d(16, eps=1e-05, momentum=0.1, affine=True)
    (relu): ReLU (inplace)
    (layer1): Sequential (
      (0): BasicBlock (
        (conv1): Conv2d(16, 16, kernel_size=(3, 3), stride=(1, 1), padding=(1, 1), bias=False)
        (bn1): BatchNorm2d(16, eps=1e-05, momentum=0.1, affine=True)
        (relu): ReLU (inplace)
        (conv2): Conv2d(16, 16, kernel_size=(3, 3), stride=(1, 1), padding=(1, 1), bias=False)
        (bn2): BatchNorm2d(16, eps=1e-05, momentum=0.1, affine=True)
      )
      (1): BasicBlock (
        (conv1): Conv2d(16, 16, kernel_size=(3, 3), stride=(1, 1), padding=(1, 1), bias=False)
        (bn1): BatchNorm2d(16, eps=1e-05, momentum=0.1, affine=True)
        (relu): ReLU (inplace)
        (conv2): Conv2d(16, 16, kernel_size=(3, 3), stride=(1, 1), padding=(1, 1), bias=False)
        (bn2): BatchNorm2d(16, eps=1e-05, momentum=0.1, affine=True)
      )
    )
    (layer2): Sequential (
      (0): BasicBlock (
        (conv1): Conv2d(16, 32, kernel_size=(3, 3), stride=(2, 2), padding=(1, 1), bias=False)
        (bn1): BatchNorm2d(32, eps=1e-05, momentum=0.1, affine=True)
        (relu): ReLU (inplace)
        (conv2): Conv2d(32, 32, kernel_size=(3, 3), stride=(1, 1), padding=(1, 1), bias=False)
        (bn2): BatchNorm2d(32, eps=1e-05, momentum=0.1, affine=True)
        (downsample): Sequential (
          (0): Conv2d(16, 32, kernel_size=(1, 1), stride=(2, 2), bias=False)
          (1): BatchNorm2d(32, eps=1e-05, momentum=0.1, affine=True)
        )
      )
      (1): BasicBlock (
        (conv1): Conv2d(32, 32, kernel_size=(3, 3), stride=(1, 1), padding=(1, 1), bias=False)
        (bn1): BatchNorm2d(32, eps=1e-05, momentum=0.1, affine=True)
        (relu): ReLU (inplace)
        (conv2): Conv2d(32, 32, kernel_size=(3, 3), stride=(1, 1), padding=(1, 1), bias=False)
        (bn2): BatchNorm2d(32, eps=1e-05, momentum=0.1, affine=True)
      )
    )
    (layer3): Sequential (
      (0): BasicBlock (
        (conv1): Conv2d(32, 64, kernel_size=(3, 3), stride=(2, 2), padding=(1, 1), bias=False)
        (bn1): BatchNorm2d(64, eps=1e-05, momentum=0.1, affine=True)
        (relu): ReLU (inplace)
        (conv2): Conv2d(64, 64, kernel_size=(3, 3), stride=(1, 1), padding=(1, 1), bias=False)
        (bn2): BatchNorm2d(64, eps=1e-05, momentum=0.1, affine=True)
        (downsample): Sequential (
          (0): Conv2d(32, 64, kernel_size=(1, 1), stride=(2, 2), bias=False)
          (1): BatchNorm2d(64, eps=1e-05, momentum=0.1, affine=True)
        )
      )
      (1): BasicBlock (
        (conv1): Conv2d(64, 64, kernel_size=(3, 3), stride=(1, 1), padding=(1, 1), bias=False)
        (bn1): BatchNorm2d(64, eps=1e-05, momentum=0.1, affine=True)
        (relu): ReLU (inplace)
        (conv2): Conv2d(64, 64, kernel_size=(3, 3), stride=(1, 1), padding=(1, 1), bias=False)
        (bn2): BatchNorm2d(64, eps=1e-05, momentum=0.1, affine=True)
      )
    )
    (avgpool): AvgPool2d (size=7, stride=7, padding=0, ceil_mode=False, count_include_pad=True)
    (fc): Linear (1024 -> 200)
  ), weights=((16, 3, 3, 3), (16,), (16,), (16, 16, 3, 3), (16,), (16,), (16, 16, 3, 3), (16,), (16,), (16, 16, 3, 3), (16,), (16,), (16, 16, 3, 3), (16,), (16,), (32, 16, 3, 3), (32,), (32,), (32, 32, 3, 3), (32,), (32,), (32, 16, 1, 1), (32,), (32,), (32, 32, 3, 3), (32,), (32,), (32, 32, 3, 3), (32,), (32,), (64, 32, 3, 3), (64,), (64,), (64, 64, 3, 3), (64,), (64,), (64, 32, 1, 1), (64,), (64,), (64, 64, 3, 3), (64,), (64,), (64, 64, 3, 3), (64,), (64,), (200, 1024), (200,)), parameters=379608
…
